Gary_experiment/UFNet-main/models/facial_expression_smile_best_auroc/predictive_model/model.pth (torch, 1676 bytes, 1 tensors)

fc.weight f4 [1, 42]
00000000: ef16 a4bd 1928 e2bd 4584 913e 1197 983e
00000010: 665f 6bbe e6ef 2abe 129d 03c0 0b7c efbd
00000020: 2acf 6d3e 3c1b 3a3e 4657 4cbe f03c c33e
00000030: a8ac 2b3e 16ac 94bd a86f 2b3e 5998 4f3d
00000040: b8d2 713d 5b77 e0bd e4f6 46be f029 a93d
00000050: f82d cf3d b658 2e3e 5650 f3bd 4cc3 8abd
00000060: 5714 2c3e 391a 24bc 1496 083d b38e 2ebe
00000070: cd18 8fbd 9735 1dbe 65cb ec3d 282f a2bd
00000080: 482b ab3c adea bc3e 5c96 1f3c e37f e63d
00000090: a1ce b23d 7e2d 293e c0ce 0cbe 4ca7 a1b9
000000a0: 3c9f 51bc 1143 05be
-0.08012187 -0.11042804 0.28421226 0.29802755 -0.2298561 -0.16693076 -2.0564618 -0.11693581
0.23223558 0.18174452 -0.19955167 0.3813243 0.16765082 -0.07259385 0.16741812 0.0506824
0.059038848 -0.10960265 -0.19430119 0.08259952 0.1011619 0.17026028 -0.11880557 -0.06775531
0.16804634 -0.010016018 0.03334625 -0.17046623 -0.06987152 -0.15352474 0.11562232 -0.079191506
0.020894662 0.36897793 0.009740438 0.11254861 0.087308176 0.1652126 -0.13750744 -0.0003083296
-0.012794312 -0.13013865
