Gary_experiment/UFNet-main/models/facial_expression_smile_best_auroc_baal/predictive_model/model.pth (torch, 1676 bytes, 1 tensors)

fc.weight f4 [1, 42]
000000 99 6d a8 bd 62 22 27 3d 9f 65 93 3e 45 ab 7e 3e
       -0.08224029 0.040804274 0.28788468 0.24870022
000010 dc f6 62 be b5 90 34 be 85 02 e2 bf e3 d4 1c be
       -0.22164482 -0.17633326 -1.7657019 -0.15315585
000020 a5 4b 67 3e bd f6 0d 3e c2 25 e2 bd 88 58 a6 3e
       0.2258745 0.13863654 -0.11042358 0.3248942
000030 42 d7 56 3e 15 de e5 bd 4b 70 34 3e d3 66 76 3d
       0.20980552 -0.112239994 0.17620961 0.060156655
000040 1a 36 86 3d 6f 1d 0d bd ad 07 25 be 92 23 ad 3d
       0.06553288 -0.0344519 -0.1611621 0.0845405
000050 45 c3 a0 3d c0 d0 a8 bc 3f 15 29 be 36 34 0b be
       0.07849745 -0.020607352 -0.16512011 -0.13594136
000060 1c 06 2c 3e ba f1 96 3c 82 03 a4 3c 2f 02 53 bd
       0.16799206 0.018425811 0.020021204 -0.051515754
000070 94 1a c8 bd 04 11 1e bd a2 07 86 bd 43 2a a1 bd
       -0.097706944 -0.038590446 -0.065444246 -0.07869389
000080 99 8b 7f 3c 21 af cf 3e f9 7d 12 be 7b 76 e2 3d
       0.0155972475 0.405633 -0.14305867 0.110577546
000090 64 49 bf 3d db 8d 1a 3e af 65 09 be 98 cf 96 bb
       0.0934017 0.15093176 -0.13417695 -0.004602384
0000a0 40 4f cf 39 ff 65 c7 bd
       0.00039541163 -0.09736251
