Gary_experiment/UFNet-main/models/fox_model_best_auroc_baal/predictive_model/model.pth (torch, 5580 bytes, 1 tensors)

fc.weight f4 [1, 1024]
0	0x3dcc6667	0.09980469
1	0xbe2f7caa	-0.171374
2	0xbf8277f3	-1.0192856
3	0xbedf9c74	-0.43674052
4	0x3dff7d06	0.12475018
5	0x3eeff0b1	0.4686332
6	0x3d7f7a1e	0.06237232
7	0x4020b087	2.5107744
8	0xbf6a2486	-0.9146198
9	0xbf7e3cd8	-0.9931159
10	0x409040e5	4.5079217
11	0x3cfa01f5	0.030518511
12	0x3fa65d2b	1.2997183
13	0x3df1f7c0	0.11814833
14	0x3f44966d	0.7679203
15	0xbff0686f	-1.8781871
16	0x3fad5f45	1.3544699
17	0x3e03befc	0.12865824
18	0xbea8fa60	-0.3300352
19	0xbf2ec797	-0.682733
20	0x40189759	2.3842375
21	0x3dca75ac	0.098857254
22	0x3f9d475f	1.2287406
23	0x3eb1d522	0.3473292
24	0x3e407d85	0.18797882
25	0xbf13c2e7	-0.5771927
26	0x3de30d69	0.11086542
27	0xbfed932d	-1.856054
28	0xbd8634f3	-0.06553068
29	0xbe20acf2	-0.15690973
30	0xbe7a4714	-0.24441177
31	0xbeb2232d	-0.34792462
32	0xbe42459c	-0.18971866
33	0x3f257db8	0.64644957
34	0xbe528e44	-0.20562083
35	0xbec60187	-0.3867304
36	0x400be176	2.185636
37	0xbe0c3f1d	-0.13695951
38	0x408936a4	4.28792
39	0xbf9cf4d0	-1.2262211
40	0xbe531b70	-0.20615935
41	0x3e192f16	0.14959368
42	0x405871ce	3.381946
43	0x3ee6b5ac	0.4506048
44	0x3ebf322a	0.3734296
45	0x3f58efca	0.8474089
46	0x4037faca	2.874682
47	0x3db3971b	0.087690555
48	0xbf3403a1	-0.7031804
49	0x3e67f011	0.22650172
50	0x408116fa	4.0340548
51	0x3db8daa3	0.09026077
52	0xbea7c985	-0.32770935
53	0x3e765caf	0.24058793
54	0x3e35ecff	0.17766188
55	0x3eb4c630	0.35307455
56	0xbe219939	-0.15781106
57	0x3f2d70d7	0.67750305
58	0x3ee83a3e	0.45356935
59	0xbde1d74c	-0.11027393
60	0xbdfb78e4	-0.122789174
61	0xbd584d75	-0.052808244
62	0x3ef71cda	0.482642
63	0xbf8ffc58	-1.1248884
64	0x3e85c15c	0.26124084
65	0xbd8e152c	-0.06937632
66	0xbd601228	-0.054704815
67	0xbe4a5f09	-0.19762816
68	0x3f3f6b4b	0.7477309
69	0xc08b45ea	-4.3522844
70	0xbeaf6537	-0.34256908
71	0xbfd6973f	-1.6764907
72	0xbe16b7eb	-0.14718597
73	0x3e41a4fc	0.18910593
74	0xbea989dc	-0.3311299
75	0xbe11c698	-0.14235914
76	0x3edf3981	0.4359856
77	0xbd2aaff1	-0.041671697
78	0xbeb8b21b	-0.36073384
79	0x3f6fc1f9	0.93655354
80	0xbf4d476c	-0.80187106
81	0xbe103de9	-0.14086117
82	0x3ef2a953	0.4739481
83	0x3e965802	0.2936402
84	0x3e209611	0.15682246
85	0x3ec8c44a	0.39212257
86	0x3e4d47f1	0.20046975
87	0xbdb0166d	-0.085980274
88	0xbeb6e050	-0.35718012
89	0xbea2c1bd	-0.31788436
90	0xbf74f6d8	-0.95689154
91	0x408034a8	4.006428
92	0x3eb743ad	0.3579382
93	0x3e68a234	0.22718126
94	0x3eea4013	0.4575201
95	0x3ed65e35	0.4186875
96	0xbe18cc58	-0.14921701
97	0xbe2e825a	-0.17041913
98	0x3d91be4f	0.071163766
99	0xbf88e629	-1.0695239
100	0x403dddb9	2.9666579
101	0x3f274b37	0.65349144
102	0xbfe081a7	-1.7539567
103	0x3d2055b0	0.039144218
104	0x3e183bbd	0.14866538
105	0xbf864df7	-1.0492543
106	0x3f08006e	0.53125656
107	0x3f20ab18	0.6276107
108	0x3fa449f8	1.2835073
109	0x3c9d7085	0.019218693
110	0xbec2481e	-0.37945646
111	0x403ca72c	2.9477034
112	0x3c8766f9	0.016528593
113	0xbf0dcf8c	-0.55394816
114	0x3e435447	0.19075118
115	0x3febe197	1.842822
116	0xbca100b9	-0.019653665
117	0xbebf2caf	-0.37338778
118	0x4008c5e7	2.137079
119	0x3eac974f	0.3370919
120	0xc04d7088	-3.2099934
121	0x3f8837a1	1.0641977
122	0x3fe8f9fb	1.8201288
123	0x3f813369	1.0093814
124	0xbe231b4b	-0.1592838
125	0xbf6e6b4c	-0.9313247
126	0xbf8d912e	-1.105993
127	0xbe49dacb	-0.19712369
128	0x3de6d553	0.11271157
129	0xbf1baf8a	-0.60814726
130	0xbd8165a7	-0.06318217
131	0x3ee38474	0.4443699
132	0xbfc4e63a	-1.538276
133	0x3d661838	0.05617544
134	0xbdbd78ca	-0.09251554
135	0xbd20b65a	-0.039236404
136	0x3c2fd552	0.010732012
137	0x3e8458d2	0.25849015
138	0x3c1732f2	0.009228455
139	0x3e3cc1e1	0.18433334
140	0xbf515994	-0.8177731
141	0xbcde6bfe	-0.027151104
142	0x3d9aa80d	0.075515844
143	0x3c1b4656	0.009477219
144	0x3fca83f3	1.5821518
145	0xbd8b448c	-0.06800184
146	0xbfaccac4	-1.3499379
147	0xbfc93521	-1.5719339
148	0x40212536	2.5178962
149	0xbeaf3ca4	-0.34225953
150	0x4034c7f6	2.8247046
151	0xbea629f1	-0.32453874
152	0x3e8684fa	0.26273328
153	0xc0151b7b	-2.3298023
154	0xbe5f44de	-0.21803614
155	0xbda60fc3	-0.08108475
156	0x3eb9865d	0.36235324
157	0xbe5cb251	-0.21552397
158	0xbcbacc67	-0.022802545
159	0x3ecac4b1	0.3960319
160	0xbf02fc9f	-0.5116672
161	0xbf92170b	-1.1413282
162	0x3e5f0ad5	0.21781476
163	0xbcd885ee	-0.02643105
164	0xbe93b254	-0.2884699
165	0x3cbd5f32	0.023116682
166	0xbfb1b60f	-1.3883685
167	0xbe2ee33d	-0.17078872
168	0xbbec8b5a	-0.0072187604
169	0x3d649d30	0.05581397
170	0x3e87dbba	0.26534826
171	0x3e902cb5	0.2815911
172	0xbfbc0d59	-1.4691573
173	0x3ec37e6f	0.381824
174	0x3c85101c	0.016243033
175	0x3f75e3ae	0.96050537
176	0xbdaa9905	-0.083299674
177	0x40973eb3	4.7264037
178	0xc0065e99	-2.0995238
179	0x40349ccd	2.8220704
180	0xc06694a3	-3.602822
181	0xbe80f38e	-0.25185817
182	0x3e8d0b74	0.275478
183	0xbe0df428	-0.1386267
184	0x3ea9f674	0.3319584
185	0xbf845437	-1.03382
186	0x3dbab68b	0.091168486
187	0xbf8c29e2	-1.0950282
188	0xbf216b77	-0.63054603
189	0x3ef31220	0.47474766
190	0xbf4d1fa0	-0.8012638
191	0xbf233d6a	-0.63765585
192	0xbed4e6ba	-0.4158228
193	0x3e7fc24c	0.24976462
194	0x3f41bbf0	0.75677395
195	0xbf2debdf	-0.67938036
196	0xbfa525b2	-1.2902129
197	0x3e72c501	0.23707964
198	0x3f63f85a	0.8905083
199	0xbcdada2f	-0.026715366
200	0xbfa9eea2	-1.327595
201	0x3f019905	0.50624114
202	0xbf01467a	-0.50498164
203	0x3dd0a6a7	0.101880364
204	0xbd9bd52a	-0.07609017
205	0xbed3d572	-0.41373783
206	0xbdd61883	-0.10453894
207	0x3ca29ebb	0.01985108
208	0x3e344927	0.1760603
209	0xbe329010	-0.17437768
210	0xbece3d9e	-0.40281385
211	0x3e1e0831	0.15432812
212	0xbf228331	-0.6348143
213	0xbe06a1bf	-0.13147639
214	0xbf2c7456	-0.67365015
215	0x4019ccf4	2.4031343
216	0x3e9e511d	0.3092126
217	0x3f34706d	0.7048405
218	0xbf5b78d5	-0.8573125
219	0xbebfdd08	-0.3747332
220	0xbdc98ebb	-0.09841677
221	0xbf69bdd7	-0.913053
222	0x3f580856	0.8438772
223	0x3e20d69b	0.15706865
224	0xbf68c7cb	-0.9092986
225	0x3d27e46e	0.040989332
226	0x3c508ab2	0.01272838
227	0x3e2b5ea3	0.1673532
228	0x3fac4fa0	1.34618
229	0xb8721d38	-5.772451e-05
230	0x3eb42c3a	0.35189992
231	0xbf693450	-0.9109545
232	0x3e07b331	0.1325195
233	0xbd5f846e	-0.054569654
234	0xbea1e21a	-0.31617814
235	0xc04c1df4	-3.1893282
236	0xbe54c27c	-0.20777315
237	0xc09b1fcf	-4.847633
238	0x3f88ae6b	1.0678228
239	0xbe81b15a	-0.2533062
240	0xbf2ed7bf	-0.6829795
241	0xbf8d71d0	-1.1050358
242	0xbe9ea08b	-0.3098186
243	0x3eccd8f5	0.40009275
244	0x3dae599b	0.08513185
245	0xbf1fd595	-0.62435275
246	0xbd17fb61	-0.037104968
247	0xc04d0f20	-3.2040482
248	0x3ff83fd2	1.9394476
249	0x3ea362d4	0.31911337
250	0xbf6d5c4f	-0.92718977
251	0x3fa95b5e	1.3231008
252	0x3bee8df6	0.0072801067
253	0xbf2dc6a3	-0.6788122
254	0xbe908bfa	-0.28231794
255	0xbd54df36	-0.051970683
